# Ultralytics YOLO11-Large + P2 + SPDConv (No EMA)

nc: 10
scales:
  l: [1.00, 1.00, 512]

backbone:
  - [-1, 1, Conv, [64, 3, 2]]
  - [-1, 1, SPDConv, [128]]   # SPD-Conv
  - [-1, 2, C3k2, [256, False, 0.25]]
  - [-1, 1, SPDConv, [256]]   # SPD-Conv
  - [-1, 2, C3k2, [512, False, 0.25]]
  - [-1, 1, SPDConv, [512]]   # SPD-Conv
  - [-1, 2, C3k2, [512, True]]
  - [-1, 1, SPDConv, [1024]]  # SPD-Conv
  - [-1, 2, C3k2, [1024, True]]
  - [-1, 1, SPPF, [1024, 5]]
  - [-1, 2, C2PSA, [1024]]     # 恢复为默认的 C2PSA，未引入EMA

head:
  # P2 Head 结构 (Same as file 1)
  - [-1, 1, nn.Upsample, [None, 2, "nearest"]]
  - [[-1, 6], 1, Concat, [1]]
  - [-1, 2, C3k2, [512, False]]

  - [-1, 1, nn.Upsample, [None, 2, "nearest"]]
  - [[-1, 4], 1, Concat, [1]]
  - [-1, 2, C3k2, [256, False]]

  - [-1, 1, nn.Upsample, [None, 2, "nearest"]]
  - [[-1, 1], 1, Concat, [1]] # cat backbone P2
  - [-1, 2, C3k2, [128, False]]

  - [-1, 1, Conv, [128, 3, 2]]
  - [[-1, 16], 1, Concat, [1]]
  - [-1, 2, C3k2, [256, False]]

  - [-1, 1, Conv, [256, 3, 2]]
  - [[-1, 13], 1, Concat, [1]]
  - [-1, 2, C3k2, [512, False]]

  - [-1, 1, Conv, [512, 3, 2]]
  - [[-1, 10], 1, Concat, [1]]
  - [-1, 2, C3k2, [1024, True]]

  - [[19, 22, 25, 28], 1, Detect, [nc]]